model/model.pth (torch, 32359 bytes, 2 tensors)

fc1.weight f4 [10, 784]
000000 50 4c 46 3b 70 e3 1a bb fa 79 85 3c ca 24 1b bc
       0.0030257888 -0.0023634098 0.016293515 -0.00946922
000010 94 22 06 3c fe a3 f6 3c e0 0c b3 bc ea 75 b0 3c
       0.008186955 0.030107494 -0.021856725 0.0215406
000020 a0 95 0d 3b 80 19 72 3a 97 89 09 3d 3a d2 d8 bc
       0.0021604076 0.0009235367 0.03357848 -0.026467431
000030 fb 13 7e 3c e0 fb 78 3c 00 d6 95 bc ac 5a 52 bc
       0.015507693 0.01519677 -0.01829052 -0.012839001
000040 00 df 0f 3b bc e0 3f 3c 58 df dc bc 47 89 98 bc
       0.0021952987 0.011711296 -0.026961967 -0.018620146
000050 06 22 75 bc 7c e5 f8 bc e8 5e 58 3c 74 41 77 bc
       -0.014961725 -0.030382864 0.013206221 -0.015091289
000060 00 56 93 b8 14 22 6d 3c 00 0d 96 3a a6 17 19 bc
       -7.025525e-05 0.014473457 0.0011447966 -0.009344017
000070 a7 8e 11 3d fb cf 0c bd ae 9f e0 bc 2a ed 8e bc
       0.035536435 -0.034378033 -0.027419891 -0.017447073
000080 cf 2c 2b 3c 02 75 06 3d f7 3a 02 3d 7d 5e f9 3b
       0.010447695 0.03282643 0.031794515 0.007610141
000090 2e 85 17 3c e9 5c b3 3c ef b7 87 bc 29 b8 19 3e
       0.009248061 0.021894889 -0.016567199 0.15011658
0000a0 29 cd 6a 3e 64 16 91 3d b8 dd 6d bc 4f f4 d9 3d
       0.22929825 0.07084349 -0.014518194 0.10642301
0000b0 7f 2e 97 3e 6b ff 2b 3e e2 ca 61 3c 98 c3 1b 3a
       0.2952766 0.16796653 0.013781281 0.00059419265
0000c0 25 78 b4 bc a9 05 9d 3c 57 e9 ef 3c 67 1d 06 bd
       -0.022029946 0.019167738 0.02928607 -0.032742884
0000d0 a2 d4 d8 3c 52 17 95 3c 46 e4 7e bc 32 c7 0c bd
       0.026468579 0.018199597 -0.015557354 -0.034369655
0000e0 5c 97 80 bc 58 3b d4 bc bf 47 af 3c 82 5e b2 3c
       -0.015697174 -0.025907204 0.021396516 0.02177358
0000f0 ea 66 4f bc 79 29 c5 bc 18 73 87 bd 4f cc f0 bd
       -0.012658814 -0.024067627 -0.06613749 -0.11757719
000100 f9 87 02 bd 31 0d 72 bd 33 89 8e bd df 4f 14 be
       -0.031867955 -0.05909461 -0.069597624 -0.14483593
000110 6f 2b 16 be 83 d7 70 be ab bd 00 bf 34 75 07 bf
       -0.14665006 -0.23519711 -0.5028941 -0.5291321
000120 6b d4 cc be 49 ff a7 be b7 35 18 be ce c8 34 bd
       -0.40005812 -0.32811955 -0.1486424 -0.044136815
000130 38 05 1b bd f2 8f 39 bd ff ba f3 bb 62 f6 95 3c
       -0.037846774 -0.045303293 -0.007438063 0.018305961
000140 5a 14 2a 3a 35 fc 78 3c e6 bf 92 3c 80 b1 83 b9
       0.0006488018 0.01519685 0.01791377 -0.00025118515
000150 57 31 06 3d e0 ae 2e bb a5 4b d0 bc d7 94 89 3d
       0.032761898 -0.0026654527 -0.025426695 0.06717842
000160 dc ce b4 bc c0 b1 01 be 13 a9 9b be e6 c5 ab be
       -0.022071294 -0.12665462 -0.3040243 -0.33549422
000170 34 ff b4 bb 90 a3 31 bd b4 96 56 3d d8 52 0b 3e
       -0.0055235866 -0.043368876 0.052389815 0.13605821
000180 0d cf 61 be ae 1c af 3e 3c 2c ff 3e b0 0b c0 3d
       -0.2205164 0.34201568 0.49838436 0.09377229
000190 f9 c1 b2 3e 42 69 1e 3e 16 4c 65 be c3 1b a4 be
       0.34913614 0.1546984 -0.22392306 -0.3205243
0001a0 30 80 ca bc bb f2 c5 be fe 19 13 be a3 53 97 bd
       -0.024719328 -0.3866175 -0.14365384 -0.07388999
0001b0 81 a8 3e bd 71 d7 d7 bc 2c 20 b4 3a f8 ee ff bc
       -0.046547417 -0.026347848 0.0013742498 -0.031241879
0001c0 ff 32 07 bd fc 54 38 bc 15 c3 07 bd b9 5d bb bc
       -0.033007618 -0.011250731 -0.03314503 -0.022871839
0001d0 5e 1c 8b bc be d3 7b be 1e ff 99 be 90 8e c6 bd
       -0.0169813 -0.24592492 -0.3007745 -0.096951604
0001e0 3f ee 10 3d da 90 9d 3e 53 ff 06 3e ce cf 23 3f
       0.03538346 0.30774575 0.13183336 0.6398896
0001f0 ef f5 b4 bd d9 19 ae 3e 52 4c 8f bd 24 04 f5 3e
       -0.088359706 0.34004095 -0.06996979 0.47854722
000200 59 e8 93 be 5d e2 98 3e 88 e3 63 3e 7d ed 5b 3e
       -0.28888205 0.298602 0.22254765 0.21477313
000210 0c 6e db 3d 63 fd 4d be 9d 9c 1b 3e 8a bd 44 3d
       0.10714349 -0.2011619 0.15196462 0.04803232
000220 78 15 6c be 29 1f f6 bd 47 bf 83 bd e4 49 21 bb
       -0.23055065 -0.12017662 -0.06432968 -0.0024610693
000230 d2 1a 09 bc 8d 58 97 3c 19 88 e5 3c 07 80 97 3c
       -0.008368211 0.018474841 0.028018998 0.018493665
000240 5a 49 08 be 22 88 0a bf f6 1c 83 3c 6a 2b 50 bc
       -0.13309231 -0.5411397 0.01600502 -0.012705663
000250 f2 25 aa 3e 4e 32 8c 3d ee 21 d0 3e 40 e8 55 3e
       0.33232075 0.06845532 0.40650886 0.20889378
000260 9f 82 9a be eb 9d 93 3e 3e 97 62 3e 58 a5 66 bd
       -0.3017778 0.2883142 0.22128007 -0.056310028
000270 1d b8 5e 3e 13 cd ef 3d c2 74 d8 3e 1a 2e 83 3e
       0.21749921 0.11709037 0.4227658 0.2562111
000280 2e 5d d1 be 35 42 4b 3d 6f c3 39 3e da 40 b1 be
       -0.40891403 0.049623687 0.18140958 -0.3461979
000290 f0 85 b8 be a3 12 5f be 98 96 a8 bd 14 70 c1 bc
       -0.36039686 -0.21784453 -0.082318485 -0.023613013
0002a0 b0 a6 76 3c bd ae 66 bb 48 82 3c bb 2e ff 0d bc
       0.01505439 -0.0035199367 -0.0028764177 -0.008666797
0002b0 1a 08 29 be 96 a1 a7 3d 2e 21 8d 3d f6 7c 5e 3d
       -0.16506997 0.08185117 0.06891094 0.05431839
0002c0 0a 6f 63 bd b7 12 57 bf 9f d1 27 bd a7 7e 77 be
       -0.055525817 -0.8401293 -0.040971395 -0.24169408
0002d0 b7 5a d5 be f1 38 1e 3f 0c 15 b1 3e 0f 20 d2 bd
       -0.41670772 0.61805636 0.3458637 -0.10260021
0002e0 b7 92 6f 3e e3 3c 0c 3d 25 2f aa 3e 40 49 e8 bd
       0.23395811 0.034237754 0.33239093 -0.11342096
0002f0 31 3d 1d 3e ea 55 c7 3e 57 97 55 3f 88 48 8c bd
       0.15355374 0.38932735 0.8343405 -0.06849772
000300 7f 18 29 bf 6d 03 10 bf c4 a1 d0 be 59 6a e0 bd
       -0.66053003 -0.5625523 -0.40748417 -0.10957784
000310 2e c5 fa 3c 06 78 05 3d b6 96 04 bb f0 04 14 bc
       0.0306116 0.032585166 -0.0020231432 -0.00903438
000320 71 f0 e3 bd 2f 90 63 3e 7b c7 db 3e 99 14 f7 bd
       -0.11129845 0.2222297 0.4292563 -0.120644756
000330 07 20 db be 8d e9 e5 3e c1 3d 54 3d 4c 2c 2e 3f
       -0.42797872 0.44904748 0.051816706 0.6803634
000340 90 e1 b1 be a9 50 25 3e f8 8e 61 bd ef 37 97 bd
       -0.34742403 0.1614405 -0.055067986 -0.07383715
000350 a4 ee d1 be 68 a7 17 3f c7 ca b2 3e e0 ee 2a 3e
       -0.4100238 0.59239817 0.34920332 0.16692686
000360 32 14 0e bd 38 1e 88 be 6d 6c 96 be 9f 69 17 3f
       -0.03468723 -0.26585555 -0.29379597 0.5914554
000370 e1 63 6a bb 4f 7a 29 bf e3 c3 12 bf 2c 10 bd bc
       -0.00357651 -0.66202253 -0.5733015 -0.023079
000380 1b 1e 8d 3d 26 3c ea bc 39 24 8c bc 61 3c 65 3d
       0.06890508 -0.028593134 -0.017107116 0.055965785
000390 a6 2c 0e bd b7 34 dd bc 29 84 93 bd ae b3 c0 bd
       -0.03471055 -0.027002675 -0.07202942 -0.09409271
0003a0 05 f1 0a 3e 8d 07 c0 3e 60 ca c8 be 66 6e 6f bd
       0.13568504 0.3750576 -0.392169 -0.058454894
0003b0 1e c0 c6 3e 91 1b 10 be a7 8b de 3e 49 95 97 3e
       0.3881845 -0.14073016 0.4346592 0.29606083
0003c0 f2 ca 86 3f 8e a8 8a 3e 57 f8 26 3e 75 42 a3 be
       1.0530684 0.27081722 0.16305672 -0.3188664
0003d0 c9 ee d0 3e 59 aa cf 3e 03 23 62 3e 4c a0 03 3f
       0.4080718 0.40559652 0.22083668 0.5141647
0003e0 a4 0b ed 3e dc 30 63 bf d2 a9 18 bf 1a 59 54 bd
       0.46297944 -0.8874643 -0.59634125 -0.051842786
0003f0 34 ac 0d bc 4b f9 ae bc 71 0c 5e 3d 93 fb 0d 3e
       -0.008647013 -0.021359107 0.054211084 0.13865499

fc1.bias f4 [10]
000000 0e ef 89 bf 8e 83 b7 3f 3d b0 4e 3e 7c a3 5d bf
       -1.0776079 1.4337022 0.20184417 -0.8657758
000010 1c a5 4b 3e 33 ca 0b 40 cd d3 c1 be 4d 08 b8 3f
       0.19887203 2.1842163 -0.37856904 1.4377533
000020 fa e8 1f c0 5b 6f 1a bf
       -2.4985948 -0.60326165
